…
          "base_uri": "https://localhost:8080/"
        },
        "id": "1xQ17KaoP3xu",
        "outputId": "87f71140-8282-4b58-90df-c1357d6eaa3f"
      },
      "execution_count": 22,
      "outputs": [
        {
          "output_type": "stream",
          "name": "stdout",
          "text": [
            "Model: \"sequential\"\n",
            "_________________________________________________________________\n",
            " Layer (type)                Output Shape              Param #   \n",
            "=================================================================\n",
            " rescaling (Rescaling)       (None, 180, 180, 3)       0         \n",
            "                                                                 \n",
            " conv2d (Conv2D)             (None, 180, 180, 32)      896       \n",
            "                                                                 \n",
            " max_pooling2d (MaxPooling2  (None, 90, 90, 32)        0         \n",
            " D)                                                              \n",
            "                                                                 \n",
            " conv2d_1 (Conv2D)           (None, 90, 90, 64)        18496     \n",
            "                                                                 \n",
            " max_pooling2d_1 (MaxPoolin  (None, 45, 45, 64)        0         \n",
            " g2D)                                                            \n",
            "                                                                 \n",
            " conv2d_2 (Conv2D)           (None, 45, 45, 128)       73856     \n",
            "                                                                 \n",
            " max_pooling2d_2 (MaxPoolin  (None, 22, 22, 128)       0         \n",
            " g2D)                                                            \n",
            "                                                                 \n",
            " conv2d_3 (Conv2D)           (None, 22, 22, 256)       295168    \n",
            "                                                                 \n",
            " max_pooling2d_3 (MaxPoolin  (None, 11, 11, 256)       0         \n",
            " g2D)                                                            \n",
            "                                                                 \n",
            " conv2d_4 (Conv2D)           (None, 11, 11, 512)       1180160   \n",
            "                                                                 \n",
            " max_pooling2d_4 (MaxPoolin  (None, 5, 5, 512)         0         \n",
            " g2D)                                                            \n",
            "                                                                 \n",
            " flatten (Flatten)           (None, 12800)             0         \n",
            "                                                                 \n",
            " dense (Dense)               (None, 1024)              13108224  \n",
            "                                                                 \n",
            " dense_1 (Dense)             (None, 9)                 9225      \n",
            "                                                                 \n",
            "=================================================================\n",
            "Total params: 14686025 (56.02 MB)\n",
            "Trainable params: 14686025 (56.02 MB)\n",
            "Non-trainable params: 0 (0.00 Byte)\n",
            "_________________________________________________________________\n"
…
